ir_version: 7
producer_name: "tf2onnx"
producer_version: "1.15.1 b57fe9"
graph {
  node {
    input: "serving_default_dense_6_input:0"
    input: "const_fold_opt__21"
    output: "sequential_2/dense_6/MatMul;sequential_2/dense_6/Relu;sequential_2/dense_6/BiasAdd"
    name: "sequential_2/dense_6/MatMul;sequential_2/dense_6/Relu;sequential_2/dense_6/BiasAdd"
    op_type: "MatMul"
  }
  node {
    input: "sequential_2/dense_6/MatMul;sequential_2/dense_6/Relu;sequential_2/dense_6/BiasAdd"
    input: "sequential_2/dense_6/BiasAdd/ReadVariableOp"
    output: "Add__8:0"
    name: "Add__8"
    op_type: "Add"
  }
  node {
    input: "Add__8:0"
    output: "Relu__5:0"
    name: "Relu__5"
    op_type: "Relu"
  }
  node {
    input: "Relu__5:0"
    input: "const_fold_opt__22"
    output: "sequential_2/dense_7/MatMul;sequential_2/dense_7/Relu;sequential_2/dense_7/BiasAdd"
    name: "sequential_2/dense_7/MatMul;sequential_2/dense_7/Relu;sequential_2/dense_7/BiasAdd"
    op_type: "MatMul"
  }
  node {
    input: "sequential_2/dense_7/MatMul;sequential_2/dense_7/Relu;sequential_2/dense_7/BiasAdd"
    input: "sequential_2/dense_7/BiasAdd/ReadVariableOp"
    output: "Add__13:0"
    name: "Add__13"
    op_type: "Add"
  }
  node {
    input: "Add__13:0"
    output: "Relu__10:0"
    name: "Relu__10"
    op_type: "Relu"
  }
  node {
    input: "Relu__10:0"
    input: "const_fold_opt__20"
    output: "StatefulPartitionedCall:0_raw_output___3:0"
    name: "StatefulPartitionedCall:0"
    op_type: "MatMul"
    domain: ""
  }
  node {
    input: "StatefulPartitionedCall:0_raw_output___3:0"
    input: "sequential_2/dense_8/BiasAdd/ReadVariableOp"
    output: "StatefulPartitionedCall:0"
    name: "Add__16"
    op_type: "Add"
  }
  name: "tf2onnx"
  initializer {
    dims: 1
    data_type: 1
    name: "sequential_2/dense_8/BiasAdd/ReadVariableOp"
    raw_data: "\315\357\247\276"
  }
  initializer {
    dims: 16
    data_type: 1
    name: "sequential_2/dense_7/BiasAdd/ReadVariableOp"
    raw_data: "…"
  }
  initializer {
    dims: 16
    data_type: 1
    name: "sequential_2/dense_6/BiasAdd/ReadVariableOp"
    raw_data: "…"
  }
  initializer {
    dims: 16
    dims: 16
    data_type: 1
    name: "const_fold_opt__22"
    raw_data: "…"
  }
  initializer {
    dims: 1
    dims: 16
    data_type: 1
    name: "const_fold_opt__21"
    raw_data: "…"
  }
  initializer {
    dims: 16
    dims: 1
    data_type: 1
    name: "const_fold_opt__20"
    raw_data: "…"
  }
  doc_string: "converted from sinus_float_model_epoch_1000.tflite"
  input {
    name: "serving_default_dense_6_input:0"
    type {
      tensor_type {
        elem_type: 1
        shape {
          dim {
            dim_param: "unk__23"
          }
          dim {
            dim_value: 1
          }
        }
      }
    }
  }
  output {
    name: "StatefulPartitionedCall:0"
    type {
      tensor_type {
        elem_type: 1
        shape {
          dim {
            dim_param: "unk__24"
          }
          dim {
            dim_value: 1
          }
        }
      }
    }
  }
}
opset_import {
  domain: ""
  version: 13
}
opset_import {
  domain: "ai.onnx.ml"
  version: 2
}

